…
     "data": {
      "text/plain": [
       "Embedding(258271, 768)"
      ]
     },
     "execution_count": 7,
     "metadata": {},
     "output_type": "execute_result"
    }
   ],
   "source": [
    "model.decoder.resize_token_embeddings(len(tokenizer))\n",
    "#model.resize_token_embeddings(len(tokenizer))\n",
    "model.encoder.resize_token_embeddings(len(tokenizer))\n"
   ]
  },
  {
   "cell_type": "code",
   "execution_count": 8,
   "metadata": {},
   "outputs": [
    {
     "data": {
      "text/plain": [
       "EncoderDecoderModel(\n",
       "  (encoder): MT5Stack(\n",
       "    (embed_tokens): Embedding(258271, 768)\n",
       "    (block): ModuleList(\n",
       "      (0): MT5Block(\n",
       "        (layer): ModuleList(\n",
       "          (0): MT5LayerSelfAttention(\n",
       "            (SelfAttention): MT5Attention(\n",
       "              (q): Linear(in_features=768, out_features=768, bias=False)\n",
       "              (k): Linear(in_features=768, out_features=768, bias=False)\n",
       "              (v): Linear(in_features=768, out_features=768, bias=False)\n",
       "              (o): Linear(in_features=768, out_features=768, bias=False)\n",
       "              (relative_attention_bias): Embedding(32, 12)\n",
       "            )\n",
       "            (layer_norm): MT5LayerNorm()\n",
       "            (dropout): Dropout(p=0.1, inplace=False)\n",
       "          )\n",
       "          (1): MT5LayerFF(\n",
       "            (DenseReluDense): MT5DenseGatedActDense(\n",
       "              (wi_0): Linear(in_features=768, out_features=2048, bias=False)\n",
       "              (wi_1): Linear(in_features=768, out_features=2048, bias=False)\n",
       "              (wo): Linear(in_features=2048, out_features=768, bias=False)\n",
       "              (dropout): Dropout(p=0.1, inplace=False)\n",
       "              (act): NewGELUActivation()\n",
       "            )\n",
       "            (layer_norm): MT5LayerNorm()\n",
       "            (dropout): Dropout(p=0.1, inplace=False)\n",
       "          )\n",
       "        )\n",
       "      )\n",
       "      (1-11): 11 x MT5Block(\n",
       "        (layer): ModuleList(\n",
       "          (0): MT5LayerSelfAttention(\n",
       "            (SelfAttention): MT5Attention(\n",
       "              (q): Linear(in_features=768, out_features=768, bias=False)\n",
       "              (k): Linear(in_features=768, out_features=768, bias=False)\n",
       "              (v): Linear(in_features=768, out_features=768, bias=False)\n",
       "              (o): Linear(in_features=768, out_features=768, bias=False)\n",
       "            )\n",
       "            (layer_norm): MT5LayerNorm()\n",
       "            (dropout): Dropout(p=0.1, inplace=False)\n",
       "          )\n",
       "          (1): MT5LayerFF(\n",
       "            (DenseReluDense): MT5DenseGatedActDense(\n",
       "              (wi_0): Linear(in_features=768, out_features=2048, bias=False)\n",
       "              (wi_1): Linear(in_features=768, out_features=2048, bias=False)\n",
       "              (wo): Linear(in_features=2048, out_features=768, bias=False)\n",
       "              (dropout): Dropout(p=0.1, inplace=False)\n",
       "              (act): NewGELUActivation()\n",
       "            )\n",
       "            (layer_norm): MT5LayerNorm()\n",
       "            (dropout): Dropout(p=0.1, inplace=False)\n",
       "          )\n",
       "        )\n",
       "      )\n",
       "    )\n",
       "    (final_layer_norm): MT5LayerNorm()\n",
       "    (dropout): Dropout(p=0.1, inplace=False)\n",
       "  )\n",
       "  (decoder): MBartForCausalLM(\n",
       "    (model): MBartDecoderWrapper(\n",
       "      (decoder): MBartDecoder(\n",
       "        (embed_tokens): Embedding(258271, 1024)\n",
       "        (embed_positions): MBartLearnedPositionalEmbedding(1026, 1024)\n",
       "        (layers): ModuleList(\n",
       "          (0-5): 6 x MBartDecoderLayer(\n",
       "            (self_attn): MBartAttention(\n",
       "              (k_proj): Linear(in_features=1024, out_features=1024, bias=True)\n",
       "              (v_proj): Linear(in_features=1024, out_features=1024, bias=True)\n",
       "              (q_proj): Linear(in_features=1024, out_features=1024, bias=True)\n",
       "              (out_proj): Linear(in_features=1024, out_features=1024, bias=True)\n",
       "            )\n",
       "            (activation_fn): GELUActivation()\n",
       "            (self_attn_layer_norm): LayerNorm((1024,), eps=1e-05, elementwise_affine=True)\n",
       "            (encoder_attn): MBartAttention(\n",
       "              (k_proj): Linear(in_features=1024, out_features=1024, bias=True)\n",
       "              (v_proj): Linear(in_features=1024, out_features=1024, bias=True)\n",
       "              (q_proj): Linear(in_features=1024, out_features=1024, bias=True)\n",
       "              (out_proj): Linear(in_features=1024, out_features=1024, bias=True)\n",
       "            )\n",
       "            (encoder_attn_layer_norm): LayerNorm((1024,), eps=1e-05, elementwise_affine=True)\n",
       "            (fc1): Linear(in_features=1024, out_features=4096, bias=True)\n",
       "            (fc2): Linear(in_features=4096, out_features=1024, bias=True)\n",
       "            (final_layer_norm): LayerNorm((1024,), eps=1e-05, elementwise_affine=True)\n",
       "          )\n",
       "        )\n",
       "        (layernorm_embedding): LayerNorm((1024,), eps=1e-05, elementwise_affine=True)\n",
       "        (layer_norm): LayerNorm((1024,), eps=1e-05, elementwise_affine=True)\n",
       "      )\n",
       "    )\n",
       "    (lm_head): Linear(in_features=1024, out_features=258271, bias=False)\n",
       "  )\n",
       "  (enc_to_dec_proj): Linear(in_features=768, out_features=1024, bias=True)\n",
       ")"
      ]
     },
     "execution_count": 8,
     "metadata": {},
     "output_type": "execute_result"
    }
   ],
   "source": [
    "model"
   ]
  },
  {
   "cell_type": "code",
   "execution_count": 9,
   "metadata": {},
   "outputs": [],
   "source": [
    "import torch"
   ]
  },
  {
   "cell_type": "code",
   "execution_count": 10,
   "metadata": {},
…
